…
Before reshaping:
  X_train: (1928, 40, 40)
  X_val: (4137, 40, 40)
  X_test: (4138, 40, 40)

After reshaping:
  X_train: (1928, 40, 40, 1)
  X_val: (4137, 40, 40, 1)
  X_test: (4138, 40, 40, 1)
['no', 'up', 'down', 'unknown', 'yes']
NUM CLASSES: 5
Train: (1928, 1600), Val: (4137, 1600), Test: (4138, 1600)

Model: "kws_dense_model"

┏━━━━━━━━━━━━━━━━━━━━━━━━━━━━━━━━━┳━━━━━━━━━━━━━━━━━━━━━━━━┳━━━━━━━━━━━━━━━┓
┃ Layer (type)                    ┃ Output Shape           ┃       Param # ┃
┡━━━━━━━━━━━━━━━━━━━━━━━━━━━━━━━━━╇━━━━━━━━━━━━━━━━━━━━━━━━╇━━━━━━━━━━━━━━━┩
│ input (InputLayer)              │ (None, 1600)           │             0 │
├─────────────────────────────────┼────────────────────────┼───────────────┤
│ dense_1 (Dense)                 │ (None, 256)            │       409,856 │
├─────────────────────────────────┼────────────────────────┼───────────────┤
│ dropout_3 (Dropout)             │ (None, 256)            │             0 │
├─────────────────────────────────┼────────────────────────┼───────────────┤
│ dense_2 (Dense)                 │ (None, 256)            │        65,792 │
├─────────────────────────────────┼────────────────────────┼───────────────┤
│ dropout_4 (Dropout)             │ (None, 256)            │             0 │
├─────────────────────────────────┼────────────────────────┼───────────────┤
│ dense_3 (Dense)                 │ (None, 256)            │        65,792 │
├─────────────────────────────────┼────────────────────────┼───────────────┤
│ dropout_5 (Dropout)             │ (None, 256)            │             0 │
├─────────────────────────────────┼────────────────────────┼───────────────┤
│ output (Dense)                  │ (None, 5)              │         1,285 │
└─────────────────────────────────┴────────────────────────┴───────────────┘

Training with F1-score monitoring...
Class weights: {0: 1.4228782287822879, 1: 1.4717557251908397, 2: 1.382078853046595, 3: 0.4634615384615385, 4: 1.3577464788732394}
Epoch 1/300
61/61 ━━━━━━━━━━━━━━━━━━━━ 0s 32ms/step - accuracy: 0.2388 - f1_score: 0.2167 - loss: 3.5929
Epoch 1: val_f1_score improved from None to 0.28122, saving model to best_f1_model.h5
…
