…
==================================================
Before reshaping:
  X_train: (191, 40, 40)
  X_val: (4137, 40, 40)
  X_test: (4138, 40, 40)

After reshaping:
  X_train: (191, 40, 40, 1)
  X_val: (4137, 40, 40, 1)
  X_test: (4138, 40, 40, 1)
['no', 'up', 'down', 'unknown', 'yes']
NUM CLASSES: 5
Train: (191, 1600), Val: (4137, 1600), Test: (4138, 1600)

Model: "kws_dense_model"

┏━━━━━━━━━━━━━━━━━━━━━━━━━━━━━━━━━┳━━━━━━━━━━━━━━━━━━━━━━━━┳━━━━━━━━━━━━━━━┓
┃ Layer (type)                    ┃ Output Shape           ┃       Param # ┃
┡━━━━━━━━━━━━━━━━━━━━━━━━━━━━━━━━━╇━━━━━━━━━━━━━━━━━━━━━━━━╇━━━━━━━━━━━━━━━┩
│ input (InputLayer)              │ (None, 1600)           │             0 │
├─────────────────────────────────┼────────────────────────┼───────────────┤
│ dense_1 (Dense)                 │ (None, 256)            │       409,856 │
├─────────────────────────────────┼────────────────────────┼───────────────┤
│ dropout_6 (Dropout)             │ (None, 256)            │             0 │
├─────────────────────────────────┼────────────────────────┼───────────────┤
│ dense_2 (Dense)                 │ (None, 256)            │        65,792 │
├─────────────────────────────────┼────────────────────────┼───────────────┤
│ dropout_7 (Dropout)             │ (None, 256)            │             0 │
├─────────────────────────────────┼────────────────────────┼───────────────┤
│ dense_3 (Dense)                 │ (None, 256)            │        65,792 │
├─────────────────────────────────┼────────────────────────┼───────────────┤
│ dropout_8 (Dropout)             │ (None, 256)            │             0 │
├─────────────────────────────────┼────────────────────────┼───────────────┤
│ output (Dense)                  │ (None, 5)              │         1,285 │
└─────────────────────────────────┴────────────────────────┴───────────────┘

Training with F1-score monitoring...
Class weights: {0: 1.4148148148148147, 1: 1.4692307692307693, 2: 1.4148148148148147, 3: 0.4602409638554217, 4: 1.3642857142857143}
Epoch 1/300
6/6 ━━━━━━━━━━━━━━━━━━━━ 0s 69ms/step - accuracy: 0.2354 - f1_score: 0.1985 - loss: 2.3757
Epoch 1: val_f1_score improved from None to 0.19567, saving model to best_f1_model.h5
…
