…
Before reshaping:
  X_train: (9653, 40, 40)
  X_val: (4137, 40, 40)
  X_test: (4138, 40, 40)

After reshaping:
  X_train: (9653, 40, 40, 1)
  X_val: (4137, 40, 40, 1)
  X_test: (4138, 40, 40, 1)
['no', 'up', 'down', 'unknown', 'yes']
NUM CLASSES: 5
Train: (9653, 1600), Val: (4137, 1600), Test: (4138, 1600)

Model: "kws_dense_model"

┏━━━━━━━━━━━━━━━━━━━━━━━━━━━━━━━━━┳━━━━━━━━━━━━━━━━━━━━━━━━┳━━━━━━━━━━━━━━━┓
┃ Layer (type)                    ┃ Output Shape           ┃       Param # ┃
┡━━━━━━━━━━━━━━━━━━━━━━━━━━━━━━━━━╇━━━━━━━━━━━━━━━━━━━━━━━━╇━━━━━━━━━━━━━━━┩
│ input (InputLayer)              │ (None, 1600)           │             0 │
├─────────────────────────────────┼────────────────────────┼───────────────┤
│ dense_1 (Dense)                 │ (None, 256)            │       409,856 │
├─────────────────────────────────┼────────────────────────┼───────────────┤
│ dropout_9 (Dropout)             │ (None, 256)            │             0 │
├─────────────────────────────────┼────────────────────────┼───────────────┤
│ dense_2 (Dense)                 │ (None, 256)            │        65,792 │
├─────────────────────────────────┼────────────────────────┼───────────────┤
│ dropout_10 (Dropout)            │ (None, 256)            │             0 │
├─────────────────────────────────┼────────────────────────┼───────────────┤
│ dense_3 (Dense)                 │ (None, 256)            │        65,792 │
├─────────────────────────────────┼────────────────────────┼───────────────┤
│ dropout_11 (Dropout)            │ (None, 256)            │             0 │
├─────────────────────────────────┼────────────────────────┼───────────────┤
│ output (Dense)                  │ (None, 5)              │         1,285 │
└─────────────────────────────────┴────────────────────────┴───────────────┘

Training with F1-score monitoring...
Class weights: {0: 1.4206033848417954, 1: 1.4726163234172387, 2: 1.3809728183118741, 3: 0.4639750060081711, 4: 1.3557584269662921}
Epoch 1/300
302/302 ━━━━━━━━━━━━━━━━━━━━ 0s 29ms/step - accuracy: 0.2470 - f1_score: 0.2350 - loss: 5.5373
Epoch 1: val_f1_score improved from None to 0.23049, saving model to best_f1_model.h5
…
