…
Train: (12162, 40, 40, 1), Val: (4055, 40, 40, 1), Test: (4055, 40, 40, 1)

Mean activation per sample:
Train mean: 0.3139 ± 0.1199
Val mean:   0.3137 ± 0.1194
============================================================
Class Names:  ['sp_1', 'sp_2', 'sp_3', 'sp_4', 'unknown']
Num classes: 5
Train: (12162, 1600), Val: (4055, 1600), Test: (4055, 1600)

Model: "kws_dense_model"

┏━━━━━━━━━━━━━━━━━━━━━━━━━━━━━━━━━┳━━━━━━━━━━━━━━━━━━━━━━━━┳━━━━━━━━━━━━━━━┓
┃ Layer (type)                    ┃ Output Shape           ┃       Param # ┃
┡━━━━━━━━━━━━━━━━━━━━━━━━━━━━━━━━━╇━━━━━━━━━━━━━━━━━━━━━━━━╇━━━━━━━━━━━━━━━┩
│ input (InputLayer)              │ (None, 1600)           │             0 │
├─────────────────────────────────┼────────────────────────┼───────────────┤
│ dense_1 (Dense)                 │ (None, 256)            │       409,856 │
├─────────────────────────────────┼────────────────────────┼───────────────┤
│ dropout_41 (Dropout)            │ (None, 256)            │             0 │
├─────────────────────────────────┼────────────────────────┼───────────────┤
│ dense_2 (Dense)                 │ (None, 256)            │        65,792 │
├─────────────────────────────────┼────────────────────────┼───────────────┤
│ dropout_42 (Dropout)            │ (None, 256)            │             0 │
├─────────────────────────────────┼────────────────────────┼───────────────┤
│ dense_3 (Dense)                 │ (None, 256)            │        65,792 │
├─────────────────────────────────┼────────────────────────┼───────────────┤
│ dropout_43 (Dropout)            │ (None, 256)            │             0 │
├─────────────────────────────────┼────────────────────────┼───────────────┤
│ output (Dense)                  │ (None, 5)              │         1,285 │
└─────────────────────────────────┴────────────────────────┴───────────────┘

Class weights for balanced training: {0: 2.802304147465438, 1: 2.802304147465438, 2: 2.7990794016110474, 3: 2.7990794016110474, 4: 0.27997237569060773}
Training Speaker Verification Model with F1-score, Precision, and Recall monitoring...
Epoch 1/300
381/381 ━━━━━━━━━━━━━━━━━━━━ 0s 35ms/step - accuracy: 0.2794 - f1_score: 0.2313 - loss: 5.5681
…
