…
Train: (12162, 40, 40, 1), Val: (4055, 40, 40, 1), Test: (4055, 40, 40, 1)

Mean activation per sample:
Train mean: 0.3139 ± 0.1199
Val mean:   0.3137 ± 0.1194
============================================================
Class Names:  ['sp_1', 'sp_2', 'sp_3', 'sp_4', 'unknown']
Num classes: 5
Train: (12162, 40, 40, 1), Val: (4055, 40, 40, 1), Test: (4055, 40, 40, 1)

Model: "teacher_sv_cnn_model"

┏━━━━━━━━━━━━━━━━━━━━━━━━━━━━━━━━━┳━━━━━━━━━━━━━━━━━━━━━━━━┳━━━━━━━━━━━━━━━┓
┃ Layer (type)                    ┃ Output Shape           ┃       Param # ┃
┡━━━━━━━━━━━━━━━━━━━━━━━━━━━━━━━━━╇━━━━━━━━━━━━━━━━━━━━━━━━╇━━━━━━━━━━━━━━━┩
│ input (InputLayer)              │ (None, 40, 40, 1)      │             0 │
├─────────────────────────────────┼────────────────────────┼───────────────┤
│ batch_normalization_46          │ (None, 40, 40, 1)      │             4 │
│ (BatchNormalization)            │                        │               │
├─────────────────────────────────┼────────────────────────┼───────────────┤
│ conv2d_136 (Conv2D)             │ (None, 40, 40, 8)      │            80 │
├─────────────────────────────────┼────────────────────────┼───────────────┤
│ max_pooling2d_68 (MaxPooling2D) │ (None, 13, 13, 8)      │             0 │
├─────────────────────────────────┼────────────────────────┼───────────────┤
│ conv2d_137 (Conv2D)             │ (None, 13, 13, 16)     │         1,168 │
├─────────────────────────────────┼────────────────────────┼───────────────┤
│ max_pooling2d_69 (MaxPooling2D) │ (None, 6, 6, 16)       │             0 │
├─────────────────────────────────┼────────────────────────┼───────────────┤
│ conv2d_138 (Conv2D)             │ (None, 3, 3, 32)       │         4,640 │
├─────────────────────────────────┼────────────────────────┼───────────────┤
│ conv2d_139 (Conv2D)             │ (None, 2, 2, 64)       │        18,496 │
├─────────────────────────────────┼────────────────────────┼───────────────┤
│ flatten_34 (Flatten)            │ (None, 256)            │             0 │
├─────────────────────────────────┼────────────────────────┼───────────────┤
│ fully_connected (Dense)         │ (None, 128)            │        32,896 │
├─────────────────────────────────┼────────────────────────┼───────────────┤
│ fully_connected_2 (Dense)       │ (None, 64)             │         8,256 │
├─────────────────────────────────┼────────────────────────┼───────────────┤
│ output_layer (Dense)            │ (None, 5)              │           325 │
└─────────────────────────────────┴────────────────────────┴───────────────┘

Class weights for balanced training: {0: 2.802304147465438, 1: 2.802304147465438, 2: 2.7990794016110474, 3: 2.7990794016110474, 4: 0.27997237569060773}
Training Speaker Verification Model with F1-score, Precision, and Recall monitoring...
Epoch 1/300
381/381 ━━━━━━━━━━━━━━━━━━━━ 0s 41ms/step - accuracy: 0.4347 - f1_score: 0.4012 - loss: 0.9898
…
