…
2025-09-10 13:24:23.897849: I tensorflow/core/common_runtime/pluggable_device/pluggable_device_factory.cc:271] Created TensorFlow device (/job:localhost/replica:0/task:0/device:GPU:0 with 0 MB memory) -> physical PluggableDevice (device: 0, name: METAL, pci bus id: <undefined>)
WARNING:absl:Compiled the loaded model, but the compiled metrics have yet to be built. `model.compile_metrics` will be empty until you train or evaluate the model.

Model: "teacher_kws_cnn"

┏━━━━━━━━━━━━━━━━━━━━━━━━━━━━━━━━━┳━━━━━━━━━━━━━━━━━━━━━━━━┳━━━━━━━━━━━━━━━┓
┃ Layer (type)                    ┃ Output Shape           ┃       Param # ┃
┡━━━━━━━━━━━━━━━━━━━━━━━━━━━━━━━━━╇━━━━━━━━━━━━━━━━━━━━━━━━╇━━━━━━━━━━━━━━━┩
│ input (InputLayer)              │ (None, 40, 40, 1)      │             0 │
├─────────────────────────────────┼────────────────────────┼───────────────┤
│ conv2d_58 (Conv2D)              │ (None, 40, 40, 32)     │           288 │
├─────────────────────────────────┼────────────────────────┼───────────────┤
│ batch_normalization_99          │ (None, 40, 40, 32)     │           128 │
│ (BatchNormalization)            │                        │               │
├─────────────────────────────────┼────────────────────────┼───────────────┤
│ re_lu_99 (ReLU)                 │ (None, 40, 40, 32)     │             0 │
├─────────────────────────────────┼────────────────────────┼───────────────┤
│ max_pooling2d_57 (MaxPooling2D) │ (None, 20, 20, 32)     │             0 │
├─────────────────────────────────┼────────────────────────┼───────────────┤
│ dropout_114 (Dropout)           │ (None, 20, 20, 32)     │             0 │
├─────────────────────────────────┼────────────────────────┼───────────────┤
│ conv2d_59 (Conv2D)              │ (None, 20, 20, 64)     │        18,432 │
├─────────────────────────────────┼────────────────────────┼───────────────┤
│ batch_normalization_100         │ (None, 20, 20, 64)     │           256 │
│ (BatchNormalization)            │                        │               │
├─────────────────────────────────┼────────────────────────┼───────────────┤
│ re_lu_100 (ReLU)                │ (None, 20, 20, 64)     │             0 │
├─────────────────────────────────┼────────────────────────┼───────────────┤
│ max_pooling2d_58 (MaxPooling2D) │ (None, 10, 10, 64)     │             0 │
├─────────────────────────────────┼────────────────────────┼───────────────┤
│ dropout_115 (Dropout)           │ (None, 10, 10, 64)     │             0 │
├─────────────────────────────────┼────────────────────────┼───────────────┤
│ conv2d_60 (Conv2D)              │ (None, 10, 10, 128)    │        73,728 │
├─────────────────────────────────┼────────────────────────┼───────────────┤
│ batch_normalization_101         │ (None, 10, 10, 128)    │           512 │
│ (BatchNormalization)            │                        │               │
├─────────────────────────────────┼────────────────────────┼───────────────┤
│ re_lu_101 (ReLU)                │ (None, 10, 10, 128)    │             0 │
├─────────────────────────────────┼────────────────────────┼───────────────┤
│ max_pooling2d_59 (MaxPooling2D) │ (None, 5, 5, 128)      │             0 │
├─────────────────────────────────┼────────────────────────┼───────────────┤
│ dropout_116 (Dropout)           │ (None, 5, 5, 128)      │             0 │
├─────────────────────────────────┼────────────────────────┼───────────────┤
│ flatten_17 (Flatten)            │ (None, 3200)           │             0 │
├─────────────────────────────────┼────────────────────────┼───────────────┤
│ dense_76 (Dense)                │ (None, 256)            │       819,200 │
├─────────────────────────────────┼────────────────────────┼───────────────┤
│ batch_normalization_102         │ (None, 256)            │         1,024 │
│ (BatchNormalization)            │                        │               │
├─────────────────────────────────┼────────────────────────┼───────────────┤
│ re_lu_102 (ReLU)                │ (None, 256)            │             0 │
├─────────────────────────────────┼────────────────────────┼───────────────┤
│ dropout_117 (Dropout)           │ (None, 256)            │             0 │
├─────────────────────────────────┼────────────────────────┼───────────────┤
│ dense_77 (Dense)                │ (None, 128)            │        32,768 │
├─────────────────────────────────┼────────────────────────┼───────────────┤
│ batch_normalization_103         │ (None, 128)            │           512 │
│ (BatchNormalization)            │                        │               │
├─────────────────────────────────┼────────────────────────┼───────────────┤
│ re_lu_103 (ReLU)                │ (None, 128)            │             0 │
├─────────────────────────────────┼────────────────────────┼───────────────┤
│ dropout_118 (Dropout)           │ (None, 128)            │             0 │
├─────────────────────────────────┼────────────────────────┼───────────────┤
│ dense_78 (Dense)                │ (None, 64)             │         8,192 │
├─────────────────────────────────┼────────────────────────┼───────────────┤
│ batch_normalization_104         │ (None, 64)             │           256 │
│ (BatchNormalization)            │                        │               │
├─────────────────────────────────┼────────────────────────┼───────────────┤
│ re_lu_104 (ReLU)                │ (None, 64)             │             0 │
├─────────────────────────────────┼────────────────────────┼───────────────┤
│ dropout_119 (Dropout)           │ (None, 64)             │             0 │
├─────────────────────────────────┼────────────────────────┼───────────────┤
│ dense_79 (Dense)                │ (None, 2)              │           130 │
└─────────────────────────────────┴────────────────────────┴───────────────┘

Class distribution: {0: 5692, 1: 810}
Imbalance ratio: 7.03:1
Class weights: {0: 0.5711524947294448, 1: 4.01358024691358}

Using layer -2: 'dropout_119' (Dropout)
Extracting from layer -2: 100%|██████████| 204/204 [00:04<00:00, 39.47it/s]2025-09-10 13:24:34.637789: W tensorflow/core/framework/local_rendezvous.cc:404] Local rendezvous is aborting with status: OUT_OF_RANGE: End of sequence
…
Extracting from layer -2: 100%|██████████| 88/88 [00:01<00:00, 48.70it/s]
Train features: (6502, 64)
Validation features: (2787, 64)
Test Features: (2787, 64)

=== PHASE 2: Dense Field Creation with Class Balancing ===
Original features range: 0.00 to 4.67
Normalized features range: -1.47 to 5.02
Class weights for imbalance: {0: 0.5711524947294448, 1: 4.01358024691358}

┏━━━━━━━━━━━━━━━━━━━━━┳━━━━━━━━━━━━━━━━━━━┳━━━━━━━━━━━━┳━━━━━━━━━━━━━━━━━━━┓
┃ Layer (type)        ┃ Output Shape      ┃    Param # ┃ Connected to      ┃
┡━━━━━━━━━━━━━━━━━━━━━╇━━━━━━━━━━━━━━━━━━━╇━━━━━━━━━━━━╇━━━━━━━━━━━━━━━━━━━┩
│ input_layer         │ (None, 64)        │          0 │ -                 │
│ (InputLayer)        │                   │            │                   │
├─────────────────────┼───────────────────┼────────────┼───────────────────┤
│ dense (Dense)       │ (None, 512)       │     33,280 │ input_layer[0][0] │
├─────────────────────┼───────────────────┼────────────┼───────────────────┤
│ dropout (Dropout)   │ (None, 512)       │          0 │ dense[0][0]       │
├─────────────────────┼───────────────────┼────────────┼───────────────────┤
│ dense_1 (Dense)     │ (None, 256)       │    131,328 │ dropout[0][0]     │
├─────────────────────┼───────────────────┼────────────┼───────────────────┤
│ dropout_1 (Dropout) │ (None, 256)       │          0 │ dense_1[0][0]     │
├─────────────────────┼───────────────────┼────────────┼───────────────────┤
│ latent (Dense)      │ (None, 64)        │     16,448 │ dropout_1[0][0]   │
├─────────────────────┼───────────────────┼────────────┼───────────────────┤
│ dense_2 (Dense)     │ (None, 256)       │     16,640 │ latent[0][0]      │
├─────────────────────┼───────────────────┼────────────┼───────────────────┤
│ dropout_2 (Dropout) │ (None, 256)       │          0 │ dense_2[0][0]     │
├─────────────────────┼───────────────────┼────────────┼───────────────────┤
│ dense_3 (Dense)     │ (None, 512)       │    131,584 │ dropout_2[0][0]   │
├─────────────────────┼───────────────────┼────────────┼───────────────────┤
│ dropout_3 (Dropout) │ (None, 512)       │          0 │ dense_3[0][0]     │
├─────────────────────┼───────────────────┼────────────┼───────────────────┤
│ reconstruction      │ (None, 64)        │     32,832 │ dropout_3[0][0]   │
│ (Dense)             │                   │            │                   │
├─────────────────────┼───────────────────┼────────────┼───────────────────┤
│ label_pred (Dense)  │ (None, 2)         │        130 │ latent[0][0]      │
└─────────────────────┴───────────────────┴────────────┴───────────────────┘

Training autoencoder with class balancing...
Epoch 1/100
2025-09-10 13:24:45.259952: I tensorflow/core/grappler/optimizers/custom_graph_optimizer_registry.cc:117] Plugin optimizer for device_type GPU is enabled.
204/204 ━━━━━━━━━━━━━━━━━━━━ 0s 35ms/step - label_pred_accuracy: 0.9210 - label_pred_loss: 0.6313 - loss: 41.4071 - reconstruction_loss: 41.3951
…
Embeddings mean: -0.000, std: 1.000
Validation embeddings shape: (2787, 64)
Test embeddings shape: (2787, 64)
Phase 2 completed successfully! ✅

=== PHASE 3: Inverter Network Training ===
Loaded embeddings - Train: (6502, 64), Val: (2787, 64)
Flattened images - Train: (6502, 1600), Val: (2787, 1600)
Input range: 0.000 to 1.000
Sample weights range: 0.571 to 4.014

┏━━━━━━━━━━━━━━━━━━━━━━━━━━━━━━━━━┳━━━━━━━━━━━━━━━━━━━━━━━━┳━━━━━━━━━━━━━━━┓
┃ Layer (type)                    ┃ Output Shape           ┃       Param # ┃
┡━━━━━━━━━━━━━━━━━━━━━━━━━━━━━━━━━╇━━━━━━━━━━━━━━━━━━━━━━━━╇━━━━━━━━━━━━━━━┩
│ input_layer (InputLayer)        │ (None, 1600)           │             0 │
├─────────────────────────────────┼────────────────────────┼───────────────┤
│ dense_1 (Dense)                 │ (None, 256)            │       409,600 │
├─────────────────────────────────┼────────────────────────┼───────────────┤
│ bn_1 (BatchNormalization)       │ (None, 256)            │         1,024 │
├─────────────────────────────────┼────────────────────────┼───────────────┤
│ activation_1 (Activation)       │ (None, 256)            │             0 │
├─────────────────────────────────┼────────────────────────┼───────────────┤
│ dropout_1 (Dropout)             │ (None, 256)            │             0 │
├─────────────────────────────────┼────────────────────────┼───────────────┤
│ dense_2 (Dense)                 │ (None, 256)            │        65,536 │
├─────────────────────────────────┼────────────────────────┼───────────────┤
│ bn_2 (BatchNormalization)       │ (None, 256)            │         1,024 │
├─────────────────────────────────┼────────────────────────┼───────────────┤
│ activation_2 (Activation)       │ (None, 256)            │             0 │
├─────────────────────────────────┼────────────────────────┼───────────────┤
│ dropout_2 (Dropout)             │ (None, 256)            │             0 │
├─────────────────────────────────┼────────────────────────┼───────────────┤
│ dense_3 (Dense)                 │ (None, 256)            │        65,536 │
├─────────────────────────────────┼────────────────────────┼───────────────┤
│ bn_3 (BatchNormalization)       │ (None, 256)            │         1,024 │
├─────────────────────────────────┼────────────────────────┼───────────────┤
│ activation_3 (Activation)       │ (None, 256)            │             0 │
├─────────────────────────────────┼────────────────────────┼───────────────┤
│ dropout_3 (Dropout)             │ (None, 256)            │             0 │
├─────────────────────────────────┼────────────────────────┼───────────────┤
│ predicted_embeddings (Dense)    │ (None, 64)             │        16,448 │
└─────────────────────────────────┴────────────────────────┴───────────────┘

Training inverter to predict teacher embeddings from flattened images...
Epoch 1/100
204/204 ━━━━━━━━━━━━━━━━━━━━ 0s 37ms/step - loss: 1.7610 - mae: 0.9717
WARNING:absl:You are saving your model as an HDF5 file via `model.save()` or `keras.saving.save_model(model)`. This file format is considered legacy. We recommend using instead the native Keras format, e.g. `model.save('my_model.keras')` or `keras.saving.save_model(model, 'my_model.keras')`. 
…
Synthesized embeddings - Train: (6502, 64), Val: (2787, 64)
Inverter performance - Average cosine similarity: 0.9005
Inverter performance - MAE: 0.2237
Phase 3 completed successfully! ✅
Multi-task dataset ready for student training in Phase 4

=== PHASE 4: Multi-Task Student Training ===
Data converted to TensorFlow tensors

Model: "multi_task_student"

┏━━━━━━━━━━━━━━━━━━━━━┳━━━━━━━━━━━━━━━━━━━┳━━━━━━━━━━━━┳━━━━━━━━━━━━━━━━━━━┓
┃ Layer (type)        ┃ Output Shape      ┃    Param # ┃ Connected to      ┃
┡━━━━━━━━━━━━━━━━━━━━━╇━━━━━━━━━━━━━━━━━━━╇━━━━━━━━━━━━╇━━━━━━━━━━━━━━━━━━━┩
│ input_layer         │ (None, 1600)      │          0 │ -                 │
│ (InputLayer)        │                   │            │                   │
├─────────────────────┼───────────────────┼────────────┼───────────────────┤
│ dense_1 (Dense)     │ (None, 256)       │    409,600 │ input_layer[0][0] │
├─────────────────────┼───────────────────┼────────────┼───────────────────┤
│ bn_1                │ (None, 256)       │      1,024 │ dense_1[0][0]     │
│ (BatchNormalizatio… │                   │            │                   │
├─────────────────────┼───────────────────┼────────────┼───────────────────┤
│ activation_1        │ (None, 256)       │          0 │ bn_1[1][0]        │
│ (Activation)        │                   │            │                   │
├─────────────────────┼───────────────────┼────────────┼───────────────────┤
│ dropout_1 (Dropout) │ (None, 256)       │          0 │ activation_1[1][… │
├─────────────────────┼───────────────────┼────────────┼───────────────────┤
│ dense_2 (Dense)     │ (None, 256)       │     65,536 │ dropout_1[1][0]   │
├─────────────────────┼───────────────────┼────────────┼───────────────────┤
│ bn_2                │ (None, 256)       │      1,024 │ dense_2[1][0]     │
│ (BatchNormalizatio… │                   │            │                   │
├─────────────────────┼───────────────────┼────────────┼───────────────────┤
│ activation_2        │ (None, 256)       │          0 │ bn_2[1][0]        │
│ (Activation)        │                   │            │                   │
├─────────────────────┼───────────────────┼────────────┼───────────────────┤
│ dropout_2 (Dropout) │ (None, 256)       │          0 │ activation_2[1][… │
├─────────────────────┼───────────────────┼────────────┼───────────────────┤
│ dense_3 (Dense)     │ (None, 256)       │     65,536 │ dropout_2[1][0]   │
├─────────────────────┼───────────────────┼────────────┼───────────────────┤
│ bn_3                │ (None, 256)       │      1,024 │ dense_3[1][0]     │
│ (BatchNormalizatio… │                   │            │                   │
├─────────────────────┼───────────────────┼────────────┼───────────────────┤
│ activation_3        │ (None, 256)       │          0 │ bn_3[1][0]        │
│ (Activation)        │                   │            │                   │
├─────────────────────┼───────────────────┼────────────┼───────────────────┤
│ dropout_3 (Dropout) │ (None, 256)       │          0 │ activation_3[1][… │
├─────────────────────┼───────────────────┼────────────┼───────────────────┤
│ class_output        │ (None, 2)         │        514 │ dropout_3[1][0]   │
│ (Dense)             │                   │            │                   │
├─────────────────────┼───────────────────┼────────────┼───────────────────┤
│ embedding_output    │ (None, 64)        │     16,448 │ dropout_3[1][0]   │
│ (Dense)             │                   │            │                   │
└─────────────────────┴───────────────────┴────────────┴───────────────────┘

Starting multi-task training...
Epoch 1/100
204/204 ━━━━━━━━━━━━━━━━━━━━ 0s 61ms/step - class_output_accuracy: 0.8735 - class_output_f1_score: 0.8838 - class_output_loss: 0.3332 - embedding_output_embedding_cosine_accuracy: 0.1961 - embedding_output_loss: 1.0503 - embedding_output_mse: 1.0503 - loss: 0.4382
…
204/204 ━━━━━━━━━━━━━━━━━━━━ 13s 65ms/step - class_output_accuracy: 0.9997 - class_output_f1_score: 0.9997 - class_output_loss: 0.0021 - embedding_output_embedding_cosine_accuracy: 0.9198 - embedding_output_loss: 0.1073 - embedding_output_mse: 0.1073 - loss: 0.0128 - val_class_output_accuracy: 0.9839 - val_class_output_f1_score: 0.9836 - val_class_output_loss: 0.0797 - val_embedding_output_embedding_cosine_accuracy: 0.9808 - val_embedding_output_loss: 0.0157 - val_embedding_output_mse: 0.0158 - val_loss: 0.0821 - learning_rate: 2.5000e-05
Creating final deployable model...

Model: "final_deployable_student"

┏━━━━━━━━━━━━━━━━━━━━━━━━━━━━━━━━━┳━━━━━━━━━━━━━━━━━━━━━━━━┳━━━━━━━━━━━━━━━┓
┃ Layer (type)                    ┃ Output Shape           ┃       Param # ┃
┡━━━━━━━━━━━━━━━━━━━━━━━━━━━━━━━━━╇━━━━━━━━━━━━━━━━━━━━━━━━╇━━━━━━━━━━━━━━━┩
│ input (InputLayer)              │ (None, 1600)           │             0 │
├─────────────────────────────────┼────────────────────────┼───────────────┤
│ dense_1 (Dense)                 │ (None, 256)            │       409,600 │
├─────────────────────────────────┼────────────────────────┼───────────────┤
│ bn_1 (BatchNormalization)       │ (None, 256)            │         1,024 │
├─────────────────────────────────┼────────────────────────┼───────────────┤
│ activation_1 (Activation)       │ (None, 256)            │             0 │
├─────────────────────────────────┼────────────────────────┼───────────────┤
│ dropout_1 (Dropout)             │ (None, 256)            │             0 │
├─────────────────────────────────┼────────────────────────┼───────────────┤
│ dense_2 (Dense)                 │ (None, 256)            │        65,536 │
├─────────────────────────────────┼────────────────────────┼───────────────┤
│ bn_2 (BatchNormalization)       │ (None, 256)            │         1,024 │
├─────────────────────────────────┼────────────────────────┼───────────────┤
│ activation_2 (Activation)       │ (None, 256)            │             0 │
├─────────────────────────────────┼────────────────────────┼───────────────┤
│ dropout_2 (Dropout)             │ (None, 256)            │             0 │
├─────────────────────────────────┼────────────────────────┼───────────────┤
│ dense_3 (Dense)                 │ (None, 256)            │        65,536 │
├─────────────────────────────────┼────────────────────────┼───────────────┤
│ bn_3 (BatchNormalization)       │ (None, 256)            │         1,024 │
├─────────────────────────────────┼────────────────────────┼───────────────┤
│ activation_3 (Activation)       │ (None, 256)            │             0 │
├─────────────────────────────────┼────────────────────────┼───────────────┤
│ dropout_3 (Dropout)             │ (None, 256)            │             0 │
├─────────────────────────────────┼────────────────────────┼───────────────┤
│ class_output (Dense)            │ (None, 2)              │           514 │
└─────────────────────────────────┴────────────────────────┴───────────────┘

Evaluating final deployable model...
88/88 ━━━━━━━━━━━━━━━━━━━━ 2s 15ms/step - accuracy: 0.9738 - loss: 0.1159
WARNING:absl:You are saving your model as an HDF5 file via `model.save()` or `keras.saving.save_model(model)`. This file format is considered legacy. We recommend using instead the native Keras format, e.g. `model.save('my_model.keras')` or `keras.saving.save_model(model, 'my_model.keras')`. 
…
Phase 4 completed successfully! ✅

Creating Model Fusion
Adding layer: input
Warinng: Could not copy layer input: too many positional arguments
Fusion dense_1 -> bn_1 -> activation_1
Fusion dense_2 -> bn_2 -> activation_2
Fusion dense_3 -> bn_3 -> activation_3
Adding Dense layer: class_output

Model: "final_deployable_student_fusion"

┏━━━━━━━━━━━━━━━━━━━━━━━━━━━━━━━━━┳━━━━━━━━━━━━━━━━━━━━━━━━┳━━━━━━━━━━━━━━━┓
┃ Layer (type)                    ┃ Output Shape           ┃       Param # ┃
┡━━━━━━━━━━━━━━━━━━━━━━━━━━━━━━━━━╇━━━━━━━━━━━━━━━━━━━━━━━━╇━━━━━━━━━━━━━━━┩
│ input (InputLayer)              │ (None, 1600)           │             0 │
├─────────────────────────────────┼────────────────────────┼───────────────┤
│ dense_1_fusion (Dense)          │ (None, 256)            │       409,856 │
├─────────────────────────────────┼────────────────────────┼───────────────┤
│ dropout_1 (Dropout)             │ (None, 256)            │             0 │
├─────────────────────────────────┼────────────────────────┼───────────────┤
│ dense_2_fusion (Dense)          │ (None, 256)            │        65,792 │
├─────────────────────────────────┼────────────────────────┼───────────────┤
│ dropout_2 (Dropout)             │ (None, 256)            │             0 │
├─────────────────────────────────┼────────────────────────┼───────────────┤
│ dense_3_fusion (Dense)          │ (None, 256)            │        65,792 │
├─────────────────────────────────┼────────────────────────┼───────────────┤
│ dropout_3 (Dropout)             │ (None, 256)            │             0 │
├─────────────────────────────────┼────────────────────────┼───────────────┤
│ class_output (Dense)            │ (None, 2)              │           514 │
└─────────────────────────────────┴────────────────────────┴───────────────┘

WARNING:absl:You are saving your model as an HDF5 file via `model.save()` or `keras.saving.save_model(model)`. This file format is considered legacy. We recommend using instead the native Keras format, e.g. `model.save('my_model.keras')` or `keras.saving.save_model(model, 'my_model.keras')`. 

Model comparison:
MSE: 0.00000000
…
