…
After reshaping:
  X_train: (9653, 40, 40, 1)
  X_val: (4137, 40, 40, 1)
  X_test: (4138, 40, 40, 1)
['no', 'up', 'down', 'unknown', 'yes']
NUM CLASSES: 5
WARNING:absl:Compiled the loaded model, but the compiled metrics have yet to be built. `model.compile_metrics` will be empty until you train or evaluate the model.

Model: "teacher_kws_cnn"

┏━━━━━━━━━━━━━━━━━━━━━━━━━━━━━━━━━┳━━━━━━━━━━━━━━━━━━━━━━━━┳━━━━━━━━━━━━━━━┓
┃ Layer (type)                    ┃ Output Shape           ┃       Param # ┃
┡━━━━━━━━━━━━━━━━━━━━━━━━━━━━━━━━━╇━━━━━━━━━━━━━━━━━━━━━━━━╇━━━━━━━━━━━━━━━┩
│ input (InputLayer)              │ (None, 40, 40, 1)      │             0 │
├─────────────────────────────────┼────────────────────────┼───────────────┤
│ conv2d_18 (Conv2D)              │ (None, 40, 40, 32)     │           288 │
├─────────────────────────────────┼────────────────────────┼───────────────┤
│ batch_normalization_36          │ (None, 40, 40, 32)     │           128 │
│ (BatchNormalization)            │                        │               │
├─────────────────────────────────┼────────────────────────┼───────────────┤
│ re_lu_36 (ReLU)                 │ (None, 40, 40, 32)     │             0 │
├─────────────────────────────────┼────────────────────────┼───────────────┤
│ max_pooling2d_18 (MaxPooling2D) │ (None, 20, 20, 32)     │             0 │
├─────────────────────────────────┼────────────────────────┼───────────────┤
│ dropout_36 (Dropout)            │ (None, 20, 20, 32)     │             0 │
├─────────────────────────────────┼────────────────────────┼───────────────┤
│ conv2d_19 (Conv2D)              │ (None, 20, 20, 64)     │        18,432 │
├─────────────────────────────────┼────────────────────────┼───────────────┤
│ batch_normalization_37          │ (None, 20, 20, 64)     │           256 │
│ (BatchNormalization)            │                        │               │
├─────────────────────────────────┼────────────────────────┼───────────────┤
│ re_lu_37 (ReLU)                 │ (None, 20, 20, 64)     │             0 │
├─────────────────────────────────┼────────────────────────┼───────────────┤
│ max_pooling2d_19 (MaxPooling2D) │ (None, 10, 10, 64)     │             0 │
├─────────────────────────────────┼────────────────────────┼───────────────┤
│ dropout_37 (Dropout)            │ (None, 10, 10, 64)     │             0 │
├─────────────────────────────────┼────────────────────────┼───────────────┤
│ conv2d_20 (Conv2D)              │ (None, 10, 10, 128)    │        73,728 │
├─────────────────────────────────┼────────────────────────┼───────────────┤
│ batch_normalization_38          │ (None, 10, 10, 128)    │           512 │
│ (BatchNormalization)            │                        │               │
├─────────────────────────────────┼────────────────────────┼───────────────┤
│ re_lu_38 (ReLU)                 │ (None, 10, 10, 128)    │             0 │
├─────────────────────────────────┼────────────────────────┼───────────────┤
│ max_pooling2d_20 (MaxPooling2D) │ (None, 5, 5, 128)      │             0 │
├─────────────────────────────────┼────────────────────────┼───────────────┤
│ dropout_38 (Dropout)            │ (None, 5, 5, 128)      │             0 │
├─────────────────────────────────┼────────────────────────┼───────────────┤
│ flatten_6 (Flatten)             │ (None, 3200)           │             0 │
├─────────────────────────────────┼────────────────────────┼───────────────┤
│ dense_24 (Dense)                │ (None, 256)            │       819,200 │
├─────────────────────────────────┼────────────────────────┼───────────────┤
│ batch_normalization_39          │ (None, 256)            │         1,024 │
│ (BatchNormalization)            │                        │               │
├─────────────────────────────────┼────────────────────────┼───────────────┤
│ re_lu_39 (ReLU)                 │ (None, 256)            │             0 │
├─────────────────────────────────┼────────────────────────┼───────────────┤
│ dropout_39 (Dropout)            │ (None, 256)            │             0 │
├─────────────────────────────────┼────────────────────────┼───────────────┤
│ dense_25 (Dense)                │ (None, 128)            │        32,768 │
├─────────────────────────────────┼────────────────────────┼───────────────┤
│ batch_normalization_40          │ (None, 128)            │           512 │
│ (BatchNormalization)            │                        │               │
├─────────────────────────────────┼────────────────────────┼───────────────┤
│ re_lu_40 (ReLU)                 │ (None, 128)            │             0 │
├─────────────────────────────────┼────────────────────────┼───────────────┤
│ dropout_40 (Dropout)            │ (None, 128)            │             0 │
├─────────────────────────────────┼────────────────────────┼───────────────┤
│ dense_26 (Dense)                │ (None, 64)             │         8,192 │
├─────────────────────────────────┼────────────────────────┼───────────────┤
│ batch_normalization_41          │ (None, 64)             │           256 │
│ (BatchNormalization)            │                        │               │
├─────────────────────────────────┼────────────────────────┼───────────────┤
│ re_lu_41 (ReLU)                 │ (None, 64)             │             0 │
├─────────────────────────────────┼────────────────────────┼───────────────┤
│ dropout_41 (Dropout)            │ (None, 64)             │             0 │
├─────────────────────────────────┼────────────────────────┼───────────────┤
│ dense_27 (Dense)                │ (None, 5)              │           325 │
└─────────────────────────────────┴────────────────────────┴───────────────┘

Class distribution: {0: 1359, 1: 1311, 2: 1398, 3: 4161, 4: 1424}
Imbalance ratio: 3.17:1
Class weights: {0: 1.4206033848417954, 1: 1.4726163234172387, 2: 1.3809728183118741, 3: 0.4639750060081711, 4: 1.3557584269662921}

Using layer -2: 'dropout_41' (Dropout)
Extracting from layer -2:  99%|█████████▉| 300/302 [00:09<00:00, 38.46it/s]2025-09-10 10:51:33.212010: W tensorflow/core/framework/local_rendezvous.cc:404] Local rendezvous is aborting with status: OUT_OF_RANGE: End of sequence
…
Train features: (9653, 64)
Validation features: (4137, 64)
Test Features: (4138, 64)

=== PHASE 2: Dense Field Creation with Class Balancing ===
Original features range: 0.00 to 3.90
Normalized features range: -1.14 to 4.78
Class weights for imbalance: {0: 1.4206033848417954, 1: 1.4726163234172387, 2: 1.3809728183118741, 3: 0.4639750060081711, 4: 1.3557584269662921}

┏━━━━━━━━━━━━━━━━━━━━━┳━━━━━━━━━━━━━━━━━━━┳━━━━━━━━━━━━┳━━━━━━━━━━━━━━━━━━━┓
┃ Layer (type)        ┃ Output Shape      ┃    Param # ┃ Connected to      ┃
┡━━━━━━━━━━━━━━━━━━━━━╇━━━━━━━━━━━━━━━━━━━╇━━━━━━━━━━━━╇━━━━━━━━━━━━━━━━━━━┩
│ input_layer_3       │ (None, 64)        │          0 │ -                 │
│ (InputLayer)        │                   │            │                   │
├─────────────────────┼───────────────────┼────────────┼───────────────────┤
│ dense_12 (Dense)    │ (None, 512)       │     33,280 │ input_layer_3[0]… │
├─────────────────────┼───────────────────┼────────────┼───────────────────┤
│ dropout_12          │ (None, 512)       │          0 │ dense_12[0][0]    │
│ (Dropout)           │                   │            │                   │
├─────────────────────┼───────────────────┼────────────┼───────────────────┤
│ dense_13 (Dense)    │ (None, 256)       │    131,328 │ dropout_12[0][0]  │
├─────────────────────┼───────────────────┼────────────┼───────────────────┤
│ dropout_13          │ (None, 256)       │          0 │ dense_13[0][0]    │
│ (Dropout)           │                   │            │                   │
├─────────────────────┼───────────────────┼────────────┼───────────────────┤
│ latent (Dense)      │ (None, 64)        │     16,448 │ dropout_13[0][0]  │
├─────────────────────┼───────────────────┼────────────┼───────────────────┤
│ dense_14 (Dense)    │ (None, 256)       │     16,640 │ latent[0][0]      │
├─────────────────────┼───────────────────┼────────────┼───────────────────┤
│ dropout_14          │ (None, 256)       │          0 │ dense_14[0][0]    │
│ (Dropout)           │                   │            │                   │
├─────────────────────┼───────────────────┼────────────┼───────────────────┤
│ dense_15 (Dense)    │ (None, 512)       │    131,584 │ dropout_14[0][0]  │
├─────────────────────┼───────────────────┼────────────┼───────────────────┤
│ dropout_15          │ (None, 512)       │          0 │ dense_15[0][0]    │
│ (Dropout)           │                   │            │                   │
├─────────────────────┼───────────────────┼────────────┼───────────────────┤
│ reconstruction      │ (None, 64)        │     32,832 │ dropout_15[0][0]  │
│ (Dense)             │                   │            │                   │
├─────────────────────┼───────────────────┼────────────┼───────────────────┤
│ label_pred (Dense)  │ (None, 5)         │        325 │ latent[0][0]      │
└─────────────────────┴───────────────────┴────────────┴───────────────────┘

Training autoencoder with class balancing...
Epoch 1/100
302/302 ━━━━━━━━━━━━━━━━━━━━ 0s 76ms/step - label_pred_accuracy: 0.9388 - label_pred_loss: 0.1762 - loss: 0.4272 - reconstruction_loss: 0.4096
WARNING:absl:You are saving your model as an HDF5 file via `model.save()` or `keras.saving.save_model(model)`. This file format is considered legacy. We recommend using instead the native Keras format, e.g. `model.save('my_model.keras')` or `keras.saving.save_model(model, 'my_model.keras')`. 
…
Embeddings mean: 0.000, std: 1.000
Validation embeddings shape: (4137, 64)
Test embeddings shape: (4138, 64)
Phase 2 completed successfully! ✅

=== PHASE 3: Inverter Network Training ===
Loaded embeddings - Train: (9653, 64), Val: (4137, 64)
Flattened images - Train: (9653, 1600), Val: (4137, 1600)
Input range: 0.000 to 1.000
Sample weights range: 0.464 to 1.473

┏━━━━━━━━━━━━━━━━━━━━━━━━━━━━━━━━━┳━━━━━━━━━━━━━━━━━━━━━━━━┳━━━━━━━━━━━━━━━┓
┃ Layer (type)                    ┃ Output Shape           ┃       Param # ┃
┡━━━━━━━━━━━━━━━━━━━━━━━━━━━━━━━━━╇━━━━━━━━━━━━━━━━━━━━━━━━╇━━━━━━━━━━━━━━━┩
│ input_layer (InputLayer)        │ (None, 1600)           │             0 │
├─────────────────────────────────┼────────────────────────┼───────────────┤
│ dense_1 (Dense)                 │ (None, 256)            │       409,600 │
├─────────────────────────────────┼────────────────────────┼───────────────┤
│ bn_1 (BatchNormalization)       │ (None, 256)            │         1,024 │
├─────────────────────────────────┼────────────────────────┼───────────────┤
│ activation_1 (Activation)       │ (None, 256)            │             0 │
├─────────────────────────────────┼────────────────────────┼───────────────┤
│ dropout_1 (Dropout)             │ (None, 256)            │             0 │
├─────────────────────────────────┼────────────────────────┼───────────────┤
│ dense_2 (Dense)                 │ (None, 256)            │        65,536 │
├─────────────────────────────────┼────────────────────────┼───────────────┤
│ bn_2 (BatchNormalization)       │ (None, 256)            │         1,024 │
├─────────────────────────────────┼────────────────────────┼───────────────┤
│ activation_2 (Activation)       │ (None, 256)            │             0 │
├─────────────────────────────────┼────────────────────────┼───────────────┤
│ dropout_2 (Dropout)             │ (None, 256)            │             0 │
├─────────────────────────────────┼────────────────────────┼───────────────┤
│ dense_3 (Dense)                 │ (None, 256)            │        65,536 │
├─────────────────────────────────┼────────────────────────┼───────────────┤
│ bn_3 (BatchNormalization)       │ (None, 256)            │         1,024 │
├─────────────────────────────────┼────────────────────────┼───────────────┤
│ activation_3 (Activation)       │ (None, 256)            │             0 │
├─────────────────────────────────┼────────────────────────┼───────────────┤
│ dropout_3 (Dropout)             │ (None, 256)            │             0 │
├─────────────────────────────────┼────────────────────────┼───────────────┤
│ predicted_embeddings (Dense)    │ (None, 64)             │        16,448 │
└─────────────────────────────────┴────────────────────────┴───────────────┘

Training inverter to predict teacher embeddings from flattened images...
Epoch 1/100
302/302 ━━━━━━━━━━━━━━━━━━━━ 0s 46ms/step - loss: 1.6713 - mae: 1.0219
WARNING:absl:You are saving your model as an HDF5 file via `model.save()` or `keras.saving.save_model(model)`. This file format is considered legacy. We recommend using instead the native Keras format, e.g. `model.save('my_model.keras')` or `keras.saving.save_model(model, 'my_model.keras')`. 
…
Synthesized embeddings - Train: (9653, 64), Val: (4137, 64)
Inverter performance - Average cosine similarity: 0.7274
Inverter performance - MAE: 0.4184
Phase 3 completed successfully! ✅
Multi-task dataset ready for student training in Phase 4

=== PHASE 4: Multi-Task Student Training ===
Data converted to TensorFlow tensors

Model: "multi_task_student"

┏━━━━━━━━━━━━━━━━━━━━━┳━━━━━━━━━━━━━━━━━━━┳━━━━━━━━━━━━┳━━━━━━━━━━━━━━━━━━━┓
┃ Layer (type)        ┃ Output Shape      ┃    Param # ┃ Connected to      ┃
┡━━━━━━━━━━━━━━━━━━━━━╇━━━━━━━━━━━━━━━━━━━╇━━━━━━━━━━━━╇━━━━━━━━━━━━━━━━━━━┩
│ input_layer         │ (None, 1600)      │          0 │ -                 │
│ (InputLayer)        │                   │            │                   │
├─────────────────────┼───────────────────┼────────────┼───────────────────┤
│ dense_1 (Dense)     │ (None, 256)       │    409,600 │ input_layer[0][0] │
├─────────────────────┼───────────────────┼────────────┼───────────────────┤
│ bn_1                │ (None, 256)       │      1,024 │ dense_1[0][0]     │
│ (BatchNormalizatio… │                   │            │                   │
├─────────────────────┼───────────────────┼────────────┼───────────────────┤
│ activation_1        │ (None, 256)       │          0 │ bn_1[1][0]        │
│ (Activation)        │                   │            │                   │
├─────────────────────┼───────────────────┼────────────┼───────────────────┤
│ dropout_1 (Dropout) │ (None, 256)       │          0 │ activation_1[1][… │
├─────────────────────┼───────────────────┼────────────┼───────────────────┤
│ dense_2 (Dense)     │ (None, 256)       │     65,536 │ dropout_1[1][0]   │
├─────────────────────┼───────────────────┼────────────┼───────────────────┤
│ bn_2                │ (None, 256)       │      1,024 │ dense_2[1][0]     │
│ (BatchNormalizatio… │                   │            │                   │
├─────────────────────┼───────────────────┼────────────┼───────────────────┤
│ activation_2        │ (None, 256)       │          0 │ bn_2[1][0]        │
│ (Activation)        │                   │            │                   │
├─────────────────────┼───────────────────┼────────────┼───────────────────┤
│ dropout_2 (Dropout) │ (None, 256)       │          0 │ activation_2[1][… │
├─────────────────────┼───────────────────┼────────────┼───────────────────┤
│ dense_3 (Dense)     │ (None, 256)       │     65,536 │ dropout_2[1][0]   │
├─────────────────────┼───────────────────┼────────────┼───────────────────┤
│ bn_3                │ (None, 256)       │      1,024 │ dense_3[1][0]     │
│ (BatchNormalizatio… │                   │            │                   │
├─────────────────────┼───────────────────┼────────────┼───────────────────┤
│ activation_3        │ (None, 256)       │          0 │ bn_3[1][0]        │
│ (Activation)        │                   │            │                   │
├─────────────────────┼───────────────────┼────────────┼───────────────────┤
│ dropout_3 (Dropout) │ (None, 256)       │          0 │ activation_3[1][… │
├─────────────────────┼───────────────────┼────────────┼───────────────────┤
│ class_output        │ (None, 5)         │      1,285 │ dropout_3[1][0]   │
│ (Dense)             │                   │            │                   │
├─────────────────────┼───────────────────┼────────────┼───────────────────┤
│ embedding_output    │ (None, 64)        │     16,448 │ dropout_3[1][0]   │
│ (Dense)             │                   │            │                   │
└─────────────────────┴───────────────────┴────────────┴───────────────────┘

Starting multi-task training...
Epoch 1/100
302/302 ━━━━━━━━━━━━━━━━━━━━ 0s 90ms/step - class_output_accuracy: 0.4916 - class_output_f1_score: 0.4843 - class_output_loss: 1.2533 - embedding_output_embedding_cosine_accuracy: 0.2312 - embedding_output_loss: 0.9735 - embedding_output_mse: 0.9735 - loss: 1.3507
…
302/302 ━━━━━━━━━━━━━━━━━━━━ 25s 82ms/step - class_output_accuracy: 0.9752 - class_output_f1_score: 0.9752 - class_output_loss: 0.0769 - embedding_output_embedding_cosine_accuracy: 0.8505 - embedding_output_loss: 0.2029 - embedding_output_mse: 0.2029 - loss: 0.0972 - val_class_output_accuracy: 0.7875 - val_class_output_f1_score: 0.7889 - val_class_output_loss: 0.7745 - val_embedding_output_embedding_cosine_accuracy: 0.9396 - val_embedding_output_loss: 0.0558 - val_embedding_output_mse: 0.0558 - val_loss: 0.7699 - learning_rate: 2.5000e-05
Creating final deployable model...

Model: "final_deployable_student"

┏━━━━━━━━━━━━━━━━━━━━━━━━━━━━━━━━━┳━━━━━━━━━━━━━━━━━━━━━━━━┳━━━━━━━━━━━━━━━┓
┃ Layer (type)                    ┃ Output Shape           ┃       Param # ┃
┡━━━━━━━━━━━━━━━━━━━━━━━━━━━━━━━━━╇━━━━━━━━━━━━━━━━━━━━━━━━╇━━━━━━━━━━━━━━━┩
│ input (InputLayer)              │ (None, 1600)           │             0 │
├─────────────────────────────────┼────────────────────────┼───────────────┤
│ dense_1 (Dense)                 │ (None, 256)            │       409,600 │
├─────────────────────────────────┼────────────────────────┼───────────────┤
│ bn_1 (BatchNormalization)       │ (None, 256)            │         1,024 │
├─────────────────────────────────┼────────────────────────┼───────────────┤
│ activation_1 (Activation)       │ (None, 256)            │             0 │
├─────────────────────────────────┼────────────────────────┼───────────────┤
│ dropout_1 (Dropout)             │ (None, 256)            │             0 │
├─────────────────────────────────┼────────────────────────┼───────────────┤
│ dense_2 (Dense)                 │ (None, 256)            │        65,536 │
├─────────────────────────────────┼────────────────────────┼───────────────┤
│ bn_2 (BatchNormalization)       │ (None, 256)            │         1,024 │
├─────────────────────────────────┼────────────────────────┼───────────────┤
│ activation_2 (Activation)       │ (None, 256)            │             0 │
├─────────────────────────────────┼────────────────────────┼───────────────┤
│ dropout_2 (Dropout)             │ (None, 256)            │             0 │
├─────────────────────────────────┼────────────────────────┼───────────────┤
│ dense_3 (Dense)                 │ (None, 256)            │        65,536 │
├─────────────────────────────────┼────────────────────────┼───────────────┤
│ bn_3 (BatchNormalization)       │ (None, 256)            │         1,024 │
├─────────────────────────────────┼────────────────────────┼───────────────┤
│ activation_3 (Activation)       │ (None, 256)            │             0 │
├─────────────────────────────────┼────────────────────────┼───────────────┤
│ dropout_3 (Dropout)             │ (None, 256)            │             0 │
├─────────────────────────────────┼────────────────────────┼───────────────┤
│ class_output (Dense)            │ (None, 5)              │         1,285 │
└─────────────────────────────────┴────────────────────────┴───────────────┘

Evaluating final deployable model...
130/130 ━━━━━━━━━━━━━━━━━━━━ 4s 19ms/step - accuracy: 0.7825 - loss: 0.6109
WARNING:absl:You are saving your model as an HDF5 file via `model.save()` or `keras.saving.save_model(model)`. This file format is considered legacy. We recommend using instead the native Keras format, e.g. `model.save('my_model.keras')` or `keras.saving.save_model(model, 'my_model.keras')`. 
…
Phase 4 completed successfully! ✅

Creating Model Fusion
Adding layer: input
Warinng: Could not copy layer input: too many positional arguments
Fusion dense_1 -> bn_1 -> activation_1
Fusion dense_2 -> bn_2 -> activation_2
Fusion dense_3 -> bn_3 -> activation_3
Adding Dense layer: class_output

Model: "final_deployable_student_fusion"

┏━━━━━━━━━━━━━━━━━━━━━━━━━━━━━━━━━┳━━━━━━━━━━━━━━━━━━━━━━━━┳━━━━━━━━━━━━━━━┓
┃ Layer (type)                    ┃ Output Shape           ┃       Param # ┃
┡━━━━━━━━━━━━━━━━━━━━━━━━━━━━━━━━━╇━━━━━━━━━━━━━━━━━━━━━━━━╇━━━━━━━━━━━━━━━┩
│ input (InputLayer)              │ (None, 1600)           │             0 │
├─────────────────────────────────┼────────────────────────┼───────────────┤
│ dense_1_fusion (Dense)          │ (None, 256)            │       409,856 │
├─────────────────────────────────┼────────────────────────┼───────────────┤
│ dropout_1 (Dropout)             │ (None, 256)            │             0 │
├─────────────────────────────────┼────────────────────────┼───────────────┤
│ dense_2_fusion (Dense)          │ (None, 256)            │        65,792 │
├─────────────────────────────────┼────────────────────────┼───────────────┤
│ dropout_2 (Dropout)             │ (None, 256)            │             0 │
├─────────────────────────────────┼────────────────────────┼───────────────┤
│ dense_3_fusion (Dense)          │ (None, 256)            │        65,792 │
├─────────────────────────────────┼────────────────────────┼───────────────┤
│ dropout_3 (Dropout)             │ (None, 256)            │             0 │
├─────────────────────────────────┼────────────────────────┼───────────────┤
│ class_output (Dense)            │ (None, 5)              │         1,285 │
└─────────────────────────────────┴────────────────────────┴───────────────┘

WARNING:absl:You are saving your model as an HDF5 file via `model.save()` or `keras.saving.save_model(model)`. This file format is considered legacy. We recommend using instead the native Keras format, e.g. `model.save('my_model.keras')` or `keras.saving.save_model(model, 'my_model.keras')`. 

Model comparison:
MSE: 0.00000000
…
