…
  X_train: (7094, 40, 40, 1)
  X_val: (3041, 40, 40, 1)
  X_test: (3041, 40, 40, 1)
NUM CLASSES: 5
['sp_1', 'sp_2', 'sp_3', 'sp_4', 'unknown']
WARNING:absl:Compiled the loaded model, but the compiled metrics have yet to be built. `model.compile_metrics` will be empty until you train or evaluate the model.

Model: "teacher_sv_cnn_model"

┏━━━━━━━━━━━━━━━━━━━━━━━━━━━━━━━━━┳━━━━━━━━━━━━━━━━━━━━━━━━┳━━━━━━━━━━━━━━━┓
┃ Layer (type)                    ┃ Output Shape           ┃       Param # ┃
┡━━━━━━━━━━━━━━━━━━━━━━━━━━━━━━━━━╇━━━━━━━━━━━━━━━━━━━━━━━━╇━━━━━━━━━━━━━━━┩
│ input (InputLayer)              │ (None, 40, 40, 1)      │             0 │
├─────────────────────────────────┼────────────────────────┼───────────────┤
│ batch_normalization_46          │ (None, 40, 40, 1)      │             4 │
│ (BatchNormalization)            │                        │               │
├─────────────────────────────────┼────────────────────────┼───────────────┤
│ conv2d_136 (Conv2D)             │ (None, 40, 40, 8)      │            80 │
├─────────────────────────────────┼────────────────────────┼───────────────┤
│ max_pooling2d_68 (MaxPooling2D) │ (None, 13, 13, 8)      │             0 │
├─────────────────────────────────┼────────────────────────┼───────────────┤
│ conv2d_137 (Conv2D)             │ (None, 13, 13, 16)     │         1,168 │
├─────────────────────────────────┼────────────────────────┼───────────────┤
│ max_pooling2d_69 (MaxPooling2D) │ (None, 6, 6, 16)       │             0 │
├─────────────────────────────────┼────────────────────────┼───────────────┤
│ conv2d_138 (Conv2D)             │ (None, 3, 3, 32)       │         4,640 │
├─────────────────────────────────┼────────────────────────┼───────────────┤
│ conv2d_139 (Conv2D)             │ (None, 2, 2, 64)       │        18,496 │
├─────────────────────────────────┼────────────────────────┼───────────────┤
│ flatten_34 (Flatten)            │ (None, 256)            │             0 │
├─────────────────────────────────┼────────────────────────┼───────────────┤
│ fully_connected (Dense)         │ (None, 128)            │        32,896 │
├─────────────────────────────────┼────────────────────────┼───────────────┤
│ fully_connected_2 (Dense)       │ (None, 64)             │         8,256 │
├─────────────────────────────────┼────────────────────────┼───────────────┤
│ output_layer (Dense)            │ (None, 5)              │           325 │
└─────────────────────────────────┴────────────────────────┴───────────────┘

Class distribution: {0: 513, 1: 507, 2: 498, 3: 498, 4: 5078}
Imbalance ratio: 10.20:1
Class weights: {0: 2.765692007797271, 1: 2.798422090729783, 2: 2.848995983935743, 3: 2.848995983935743, 4: 0.2794013391098858}

Using layer -2: 'fully_connected_2' (Dense)
Extracting from layer -2:  98%|█████████▊| 217/222 [00:02<00:00, 112.57it/s]2025-09-11 16:04:11.028015: W tensorflow/core/framework/local_rendezvous.cc:404] Local rendezvous is aborting with status: OUT_OF_RANGE: End of sequence
…
Train features: (7094, 64)
Validation features: (3041, 64)
Test Features: (3041, 64)

=== PHASE 2: Dense Field Creation with Class Balancing ===
Original features range: -38.21 to 39.76
Normalized features range: -5.87 to 5.81
Class weights for imbalance: {0: 2.765692007797271, 1: 2.798422090729783, 2: 2.848995983935743, 3: 2.848995983935743, 4: 0.2794013391098858}

┏━━━━━━━━━━━━━━━━━━━━━┳━━━━━━━━━━━━━━━━━━━┳━━━━━━━━━━━━┳━━━━━━━━━━━━━━━━━━━┓
┃ Layer (type)        ┃ Output Shape      ┃    Param # ┃ Connected to      ┃
┡━━━━━━━━━━━━━━━━━━━━━╇━━━━━━━━━━━━━━━━━━━╇━━━━━━━━━━━━╇━━━━━━━━━━━━━━━━━━━┩
│ input_layer_4       │ (None, 64)        │          0 │ -                 │
│ (InputLayer)        │                   │            │                   │
├─────────────────────┼───────────────────┼────────────┼───────────────────┤
│ dense_16 (Dense)    │ (None, 512)       │     33,280 │ input_layer_4[0]… │
├─────────────────────┼───────────────────┼────────────┼───────────────────┤
│ dropout_16          │ (None, 512)       │          0 │ dense_16[0][0]    │
│ (Dropout)           │                   │            │                   │
├─────────────────────┼───────────────────┼────────────┼───────────────────┤
│ dense_17 (Dense)    │ (None, 256)       │    131,328 │ dropout_16[0][0]  │
├─────────────────────┼───────────────────┼────────────┼───────────────────┤
│ dropout_17          │ (None, 256)       │          0 │ dense_17[0][0]    │
│ (Dropout)           │                   │            │                   │
├─────────────────────┼───────────────────┼────────────┼───────────────────┤
│ latent (Dense)      │ (None, 64)        │     16,448 │ dropout_17[0][0]  │
├─────────────────────┼───────────────────┼────────────┼───────────────────┤
│ dense_18 (Dense)    │ (None, 256)       │     16,640 │ latent[0][0]      │
├─────────────────────┼───────────────────┼────────────┼───────────────────┤
│ dropout_18          │ (None, 256)       │          0 │ dense_18[0][0]    │
│ (Dropout)           │                   │            │                   │
├─────────────────────┼───────────────────┼────────────┼───────────────────┤
│ dense_19 (Dense)    │ (None, 512)       │    131,584 │ dropout_18[0][0]  │
├─────────────────────┼───────────────────┼────────────┼───────────────────┤
│ dropout_19          │ (None, 512)       │          0 │ dense_19[0][0]    │
│ (Dropout)           │                   │            │                   │
├─────────────────────┼───────────────────┼────────────┼───────────────────┤
│ reconstruction      │ (None, 64)        │     32,832 │ dropout_19[0][0]  │
│ (Dense)             │                   │            │                   │
├─────────────────────┼───────────────────┼────────────┼───────────────────┤
│ label_pred (Dense)  │ (None, 5)         │        325 │ latent[0][0]      │
└─────────────────────┴───────────────────┴────────────┴───────────────────┘

Training autoencoder with class balancing...
Epoch 1/100
222/222 ━━━━━━━━━━━━━━━━━━━━ 0s 36ms/step - label_pred_accuracy: 0.6031 - label_pred_loss: 0.5237 - loss: 0.5957 - reconstruction_loss: 0.5434
WARNING:absl:You are saving your model as an HDF5 file via `model.save()` or `keras.saving.save_model(model)`. This file format is considered legacy. We recommend using instead the native Keras format, e.g. `model.save('my_model.keras')` or `keras.saving.save_model(model, 'my_model.keras')`. 
…
Embeddings mean: 0.000, std: 1.000
Validation embeddings shape: (3041, 64)
Test embeddings shape: (3041, 64)
Phase 2 completed successfully! ✅

=== PHASE 3: Inverter Network Training ===
Loaded embeddings - Train: (7094, 64), Val: (3041, 64)
Flattened images - Train: (7094, 1600), Val: (3041, 1600)
Input range: 0.000 to 1.000
Sample weights range: 0.279 to 2.849

┏━━━━━━━━━━━━━━━━━━━━━━━━━━━━━━━━━┳━━━━━━━━━━━━━━━━━━━━━━━━┳━━━━━━━━━━━━━━━┓
┃ Layer (type)                    ┃ Output Shape           ┃       Param # ┃
┡━━━━━━━━━━━━━━━━━━━━━━━━━━━━━━━━━╇━━━━━━━━━━━━━━━━━━━━━━━━╇━━━━━━━━━━━━━━━┩
│ input_layer (InputLayer)        │ (None, 1600)           │             0 │
├─────────────────────────────────┼────────────────────────┼───────────────┤
│ dense_1 (Dense)                 │ (None, 256)            │       409,600 │
├─────────────────────────────────┼────────────────────────┼───────────────┤
│ bn_1 (BatchNormalization)       │ (None, 256)            │         1,024 │
├─────────────────────────────────┼────────────────────────┼───────────────┤
│ activation_1 (Activation)       │ (None, 256)            │             0 │
├─────────────────────────────────┼────────────────────────┼───────────────┤
│ dropout_1 (Dropout)             │ (None, 256)            │             0 │
├─────────────────────────────────┼────────────────────────┼───────────────┤
│ dense_2 (Dense)                 │ (None, 256)            │        65,536 │
├─────────────────────────────────┼────────────────────────┼───────────────┤
│ bn_2 (BatchNormalization)       │ (None, 256)            │         1,024 │
├─────────────────────────────────┼────────────────────────┼───────────────┤
│ activation_2 (Activation)       │ (None, 256)            │             0 │
├─────────────────────────────────┼────────────────────────┼───────────────┤
│ dropout_2 (Dropout)             │ (None, 256)            │             0 │
├─────────────────────────────────┼────────────────────────┼───────────────┤
│ dense_3 (Dense)                 │ (None, 256)            │        65,536 │
├─────────────────────────────────┼────────────────────────┼───────────────┤
│ bn_3 (BatchNormalization)       │ (None, 256)            │         1,024 │
├─────────────────────────────────┼────────────────────────┼───────────────┤
│ activation_3 (Activation)       │ (None, 256)            │             0 │
├─────────────────────────────────┼────────────────────────┼───────────────┤
│ dropout_3 (Dropout)             │ (None, 256)            │             0 │
├─────────────────────────────────┼────────────────────────┼───────────────┤
│ predicted_embeddings (Dense)    │ (None, 64)             │        16,448 │
└─────────────────────────────────┴────────────────────────┴───────────────┘

Training inverter to predict teacher embeddings from flattened images...
Epoch 1/100
222/222 ━━━━━━━━━━━━━━━━━━━━ 0s 34ms/step - loss: 2.3526 - mae: 1.0333
WARNING:absl:You are saving your model as an HDF5 file via `model.save()` or `keras.saving.save_model(model)`. This file format is considered legacy. We recommend using instead the native Keras format, e.g. `model.save('my_model.keras')` or `keras.saving.save_model(model, 'my_model.keras')`. 
…
Synthesized embeddings - Train: (7094, 64), Val: (3041, 64)
Inverter performance - Average cosine similarity: 0.6693
Inverter performance - MAE: 0.4793
Phase 3 completed successfully! ✅
Multi-task dataset ready for student training in Phase 4

=== PHASE 4: Multi-Task Student Training ===
Data converted to TensorFlow tensors

Model: "multi_task_student"

┏━━━━━━━━━━━━━━━━━━━━━┳━━━━━━━━━━━━━━━━━━━┳━━━━━━━━━━━━┳━━━━━━━━━━━━━━━━━━━┓
┃ Layer (type)        ┃ Output Shape      ┃    Param # ┃ Connected to      ┃
┡━━━━━━━━━━━━━━━━━━━━━╇━━━━━━━━━━━━━━━━━━━╇━━━━━━━━━━━━╇━━━━━━━━━━━━━━━━━━━┩
│ input_layer         │ (None, 1600)      │          0 │ -                 │
│ (InputLayer)        │                   │            │                   │
├─────────────────────┼───────────────────┼────────────┼───────────────────┤
│ dense_1 (Dense)     │ (None, 256)       │    409,600 │ input_layer[0][0] │
├─────────────────────┼───────────────────┼────────────┼───────────────────┤
│ bn_1                │ (None, 256)       │      1,024 │ dense_1[0][0]     │
│ (BatchNormalizatio… │                   │            │                   │
├─────────────────────┼───────────────────┼────────────┼───────────────────┤
│ activation_1        │ (None, 256)       │          0 │ bn_1[1][0]        │
│ (Activation)        │                   │            │                   │
├─────────────────────┼───────────────────┼────────────┼───────────────────┤
│ dropout_1 (Dropout) │ (None, 256)       │          0 │ activation_1[1][… │
├─────────────────────┼───────────────────┼────────────┼───────────────────┤
│ dense_2 (Dense)     │ (None, 256)       │     65,536 │ dropout_1[1][0]   │
├─────────────────────┼───────────────────┼────────────┼───────────────────┤
│ bn_2                │ (None, 256)       │      1,024 │ dense_2[1][0]     │
│ (BatchNormalizatio… │                   │            │                   │
├─────────────────────┼───────────────────┼────────────┼───────────────────┤
│ activation_2        │ (None, 256)       │          0 │ bn_2[1][0]        │
│ (Activation)        │                   │            │                   │
├─────────────────────┼───────────────────┼────────────┼───────────────────┤
│ dropout_2 (Dropout) │ (None, 256)       │          0 │ activation_2[1][… │
├─────────────────────┼───────────────────┼────────────┼───────────────────┤
│ dense_3 (Dense)     │ (None, 256)       │     65,536 │ dropout_2[1][0]   │
├─────────────────────┼───────────────────┼────────────┼───────────────────┤
│ bn_3                │ (None, 256)       │      1,024 │ dense_3[1][0]     │
│ (BatchNormalizatio… │                   │            │                   │
├─────────────────────┼───────────────────┼────────────┼───────────────────┤
│ activation_3        │ (None, 256)       │          0 │ bn_3[1][0]        │
│ (Activation)        │                   │            │                   │
├─────────────────────┼───────────────────┼────────────┼───────────────────┤
│ dropout_3 (Dropout) │ (None, 256)       │          0 │ activation_3[1][… │
├─────────────────────┼───────────────────┼────────────┼───────────────────┤
│ class_output        │ (None, 5)         │      1,285 │ dropout_3[1][0]   │
│ (Dense)             │                   │            │                   │
├─────────────────────┼───────────────────┼────────────┼───────────────────┤
│ embedding_output    │ (None, 64)        │     16,448 │ dropout_3[1][0]   │
│ (Dense)             │                   │            │                   │
└─────────────────────┴───────────────────┴────────────┴───────────────────┘

Starting multi-task training...
Epoch 1/100
222/222 ━━━━━━━━━━━━━━━━━━━━ 0s 63ms/step - class_output_accuracy: 0.5815 - class_output_f1_score: 0.5882 - class_output_loss: 1.1755 - embedding_output_embedding_cosine_accuracy: 0.1113 - embedding_output_loss: 1.0908 - embedding_output_mse: 1.0908 - loss: 1.2846
…
222/222 ━━━━━━━━━━━━━━━━━━━━ 17s 76ms/step - class_output_accuracy: 0.9908 - class_output_f1_score: 0.9908 - class_output_loss: 0.0406 - embedding_output_embedding_cosine_accuracy: 0.7467 - embedding_output_loss: 0.2392 - embedding_output_mse: 0.2393 - loss: 0.0645 - val_class_output_accuracy: 0.9293 - val_class_output_f1_score: 0.9288 - val_class_output_loss: 0.2315 - val_embedding_output_embedding_cosine_accuracy: 0.8848 - val_embedding_output_loss: 0.0858 - val_embedding_output_mse: 0.0853 - val_loss: 0.2424 - learning_rate: 1.0000e-04
Creating final deployable model...

Model: "final_deployable_student"

┏━━━━━━━━━━━━━━━━━━━━━━━━━━━━━━━━━┳━━━━━━━━━━━━━━━━━━━━━━━━┳━━━━━━━━━━━━━━━┓
┃ Layer (type)                    ┃ Output Shape           ┃       Param # ┃
┡━━━━━━━━━━━━━━━━━━━━━━━━━━━━━━━━━╇━━━━━━━━━━━━━━━━━━━━━━━━╇━━━━━━━━━━━━━━━┩
│ input (InputLayer)              │ (None, 1600)           │             0 │
├─────────────────────────────────┼────────────────────────┼───────────────┤
│ dense_1 (Dense)                 │ (None, 256)            │       409,600 │
├─────────────────────────────────┼────────────────────────┼───────────────┤
│ bn_1 (BatchNormalization)       │ (None, 256)            │         1,024 │
├─────────────────────────────────┼────────────────────────┼───────────────┤
│ activation_1 (Activation)       │ (None, 256)            │             0 │
├─────────────────────────────────┼────────────────────────┼───────────────┤
│ dropout_1 (Dropout)             │ (None, 256)            │             0 │
├─────────────────────────────────┼────────────────────────┼───────────────┤
│ dense_2 (Dense)                 │ (None, 256)            │        65,536 │
├─────────────────────────────────┼────────────────────────┼───────────────┤
│ bn_2 (BatchNormalization)       │ (None, 256)            │         1,024 │
├─────────────────────────────────┼────────────────────────┼───────────────┤
│ activation_2 (Activation)       │ (None, 256)            │             0 │
├─────────────────────────────────┼────────────────────────┼───────────────┤
│ dropout_2 (Dropout)             │ (None, 256)            │             0 │
├─────────────────────────────────┼────────────────────────┼───────────────┤
│ dense_3 (Dense)                 │ (None, 256)            │        65,536 │
├─────────────────────────────────┼────────────────────────┼───────────────┤
│ bn_3 (BatchNormalization)       │ (None, 256)            │         1,024 │
├─────────────────────────────────┼────────────────────────┼───────────────┤
│ activation_3 (Activation)       │ (None, 256)            │             0 │
├─────────────────────────────────┼────────────────────────┼───────────────┤
│ dropout_3 (Dropout)             │ (None, 256)            │             0 │
├─────────────────────────────────┼────────────────────────┼───────────────┤
│ class_output (Dense)            │ (None, 5)              │         1,285 │
└─────────────────────────────────┴────────────────────────┴───────────────┘

Evaluating final deployable model...
96/96 ━━━━━━━━━━━━━━━━━━━━ 2s 18ms/step - accuracy: 0.8737 - loss: 0.4716
WARNING:absl:You are saving your model as an HDF5 file via `model.save()` or `keras.saving.save_model(model)`. This file format is considered legacy. We recommend using instead the native Keras format, e.g. `model.save('my_model.keras')` or `keras.saving.save_model(model, 'my_model.keras')`. 
…
Phase 4 completed successfully! ✅

Creating Model Fusion
Adding layer: input
Warinng: Could not copy layer input: too many positional arguments
Fusion dense_1 -> bn_1 -> activation_1
Fusion dense_2 -> bn_2 -> activation_2
Fusion dense_3 -> bn_3 -> activation_3
Adding Dense layer: class_output

Model: "final_deployable_student_fusion"

┏━━━━━━━━━━━━━━━━━━━━━━━━━━━━━━━━━┳━━━━━━━━━━━━━━━━━━━━━━━━┳━━━━━━━━━━━━━━━┓
┃ Layer (type)                    ┃ Output Shape           ┃       Param # ┃
┡━━━━━━━━━━━━━━━━━━━━━━━━━━━━━━━━━╇━━━━━━━━━━━━━━━━━━━━━━━━╇━━━━━━━━━━━━━━━┩
│ input (InputLayer)              │ (None, 1600)           │             0 │
├─────────────────────────────────┼────────────────────────┼───────────────┤
│ dense_1_fusion (Dense)          │ (None, 256)            │       409,856 │
├─────────────────────────────────┼────────────────────────┼───────────────┤
│ dropout_1 (Dropout)             │ (None, 256)            │             0 │
├─────────────────────────────────┼────────────────────────┼───────────────┤
│ dense_2_fusion (Dense)          │ (None, 256)            │        65,792 │
├─────────────────────────────────┼────────────────────────┼───────────────┤
│ dropout_2 (Dropout)             │ (None, 256)            │             0 │
├─────────────────────────────────┼────────────────────────┼───────────────┤
│ dense_3_fusion (Dense)          │ (None, 256)            │        65,792 │
├─────────────────────────────────┼────────────────────────┼───────────────┤
│ dropout_3 (Dropout)             │ (None, 256)            │             0 │
├─────────────────────────────────┼────────────────────────┼───────────────┤
│ class_output (Dense)            │ (None, 5)              │         1,285 │
└─────────────────────────────────┴────────────────────────┴───────────────┘

WARNING:absl:You are saving your model as an HDF5 file via `model.save()` or `keras.saving.save_model(model)`. This file format is considered legacy. We recommend using instead the native Keras format, e.g. `model.save('my_model.keras')` or `keras.saving.save_model(model, 'my_model.keras')`. 

Model comparison:
MSE: 0.00000000
…
