…
Test:  min=0.0000, max=1.0000, mean=0.5040

Data shapes:
Train: (11146, 40, 40, 1), Val: (3716, 40, 40, 1), Test: (3716, 40, 40, 1)

Mean activation per sample:
Train mean: 0.5030 ± 0.2454
Val mean:   0.5001 ± 0.2432
============================================================
Unique values in y_train: [0 1]
Unique values in y_val: [0 1]
Unique values in y_test: [0 1]

┏━━━━━━━━━━━━━━━━━━━━━━━━━━━━━━━━━┳━━━━━━━━━━━━━━━━━━━━━━━━┳━━━━━━━━━━━━━━━┓
┃ Layer (type)                    ┃ Output Shape           ┃       Param # ┃
┡━━━━━━━━━━━━━━━━━━━━━━━━━━━━━━━━━╇━━━━━━━━━━━━━━━━━━━━━━━━╇━━━━━━━━━━━━━━━┩
│ input (InputLayer)              │ (None, 40, 40, 1)      │             0 │
├─────────────────────────────────┼────────────────────────┼───────────────┤
│ conv2d_6 (Conv2D)               │ (None, 40, 40, 32)     │           288 │
├─────────────────────────────────┼────────────────────────┼───────────────┤
│ batch_normalization_12          │ (None, 40, 40, 32)     │           128 │
│ (BatchNormalization)            │                        │               │
├─────────────────────────────────┼────────────────────────┼───────────────┤
│ re_lu_12 (ReLU)                 │ (None, 40, 40, 32)     │             0 │
├─────────────────────────────────┼────────────────────────┼───────────────┤
│ max_pooling2d_6 (MaxPooling2D)  │ (None, 20, 20, 32)     │             0 │
├─────────────────────────────────┼────────────────────────┼───────────────┤
│ dropout_36 (Dropout)            │ (None, 20, 20, 32)     │             0 │
├─────────────────────────────────┼────────────────────────┼───────────────┤
│ conv2d_7 (Conv2D)               │ (None, 20, 20, 64)     │        18,432 │
├─────────────────────────────────┼────────────────────────┼───────────────┤
│ batch_normalization_13          │ (None, 20, 20, 64)     │           256 │
│ (BatchNormalization)            │                        │               │
├─────────────────────────────────┼────────────────────────┼───────────────┤
│ re_lu_13 (ReLU)                 │ (None, 20, 20, 64)     │             0 │
├─────────────────────────────────┼────────────────────────┼───────────────┤
│ max_pooling2d_7 (MaxPooling2D)  │ (None, 10, 10, 64)     │             0 │
├─────────────────────────────────┼────────────────────────┼───────────────┤
│ dropout_37 (Dropout)            │ (None, 10, 10, 64)     │             0 │
├─────────────────────────────────┼────────────────────────┼───────────────┤
│ conv2d_8 (Conv2D)               │ (None, 10, 10, 128)    │        73,728 │
├─────────────────────────────────┼────────────────────────┼───────────────┤
│ batch_normalization_14          │ (None, 10, 10, 128)    │           512 │
│ (BatchNormalization)            │                        │               │
├─────────────────────────────────┼────────────────────────┼───────────────┤
│ re_lu_14 (ReLU)                 │ (None, 10, 10, 128)    │             0 │
├─────────────────────────────────┼────────────────────────┼───────────────┤
│ max_pooling2d_8 (MaxPooling2D)  │ (None, 5, 5, 128)      │             0 │
├─────────────────────────────────┼────────────────────────┼───────────────┤
│ dropout_38 (Dropout)            │ (None, 5, 5, 128)      │             0 │
├─────────────────────────────────┼────────────────────────┼───────────────┤
│ flatten_2 (Flatten)             │ (None, 3200)           │             0 │
├─────────────────────────────────┼────────────────────────┼───────────────┤
│ dense_8 (Dense)                 │ (None, 256)            │       819,200 │
├─────────────────────────────────┼────────────────────────┼───────────────┤
│ batch_normalization_15          │ (None, 256)            │         1,024 │
│ (BatchNormalization)            │                        │               │
├─────────────────────────────────┼────────────────────────┼───────────────┤
│ re_lu_15 (ReLU)                 │ (None, 256)            │             0 │
├─────────────────────────────────┼────────────────────────┼───────────────┤
│ dropout_39 (Dropout)            │ (None, 256)            │             0 │
├─────────────────────────────────┼────────────────────────┼───────────────┤
│ dense_9 (Dense)                 │ (None, 128)            │        32,768 │
├─────────────────────────────────┼────────────────────────┼───────────────┤
│ batch_normalization_16          │ (None, 128)            │           512 │
│ (BatchNormalization)            │                        │               │
├─────────────────────────────────┼────────────────────────┼───────────────┤
│ re_lu_16 (ReLU)                 │ (None, 128)            │             0 │
├─────────────────────────────────┼────────────────────────┼───────────────┤
│ dropout_40 (Dropout)            │ (None, 128)            │             0 │
├─────────────────────────────────┼────────────────────────┼───────────────┤
│ dense_10 (Dense)                │ (None, 64)             │         8,192 │
├─────────────────────────────────┼────────────────────────┼───────────────┤
│ batch_normalization_17          │ (None, 64)             │           256 │
│ (BatchNormalization)            │                        │               │
├─────────────────────────────────┼────────────────────────┼───────────────┤
│ re_lu_17 (ReLU)                 │ (None, 64)             │             0 │
├─────────────────────────────────┼────────────────────────┼───────────────┤
│ dropout_41 (Dropout)            │ (None, 64)             │             0 │
├─────────────────────────────────┼────────────────────────┼───────────────┤
│ dense_11 (Dense)                │ (None, 2)              │           130 │
└─────────────────────────────────┴────────────────────────┴───────────────┘

Training with F1-score monitoring...
Class weights: {0: 0.571121131379381, 1: 4.015129682997118}
Epoch 1/50
349/349 ━━━━━━━━━━━━━━━━━━━━ 0s 69ms/step - accuracy: 0.6890 - f1_score: 0.3881 - loss: 0.6083
Epoch 1: val_f1_score improved from None to 0.80936, saving model to best_f1_model.h5
WARNING:absl:You are saving your model as an HDF5 file via `model.save()` or `keras.saving.save_model(model)`. This file format is considered legacy. We recommend using instead the native Keras format, e.g. `model.save('my_model.keras')` or `keras.saving.save_model(model, 'my_model.keras')`. 
…
