…
Data shapes:
Train: (11146, 40, 40, 1), Val: (3716, 40, 40, 1), Test: (3716, 40, 40, 1)

Mean activation per sample:
Train mean: 0.5030 ± 0.2454
Val mean:   0.5001 ± 0.2432
============================================================
Unique values in y_train: [0 1]
Unique values in y_val: [0 1]
Unique values in y_test: [0 1]

Teacher model:

┏━━━━━━━━━━━━━━━━━━━━━━━━━━━━━━━━━┳━━━━━━━━━━━━━━━━━━━━━━━━┳━━━━━━━━━━━━━━━┓
┃ Layer (type)                    ┃ Output Shape           ┃       Param # ┃
┡━━━━━━━━━━━━━━━━━━━━━━━━━━━━━━━━━╇━━━━━━━━━━━━━━━━━━━━━━━━╇━━━━━━━━━━━━━━━┩
│ input (InputLayer)              │ (None, 40, 40, 1)      │             0 │
├─────────────────────────────────┼────────────────────────┼───────────────┤
│ conv2d_58 (Conv2D)              │ (None, 40, 40, 32)     │           288 │
├─────────────────────────────────┼────────────────────────┼───────────────┤
│ batch_normalization_99          │ (None, 40, 40, 32)     │           128 │
│ (BatchNormalization)            │                        │               │
├─────────────────────────────────┼────────────────────────┼───────────────┤
│ re_lu_99 (ReLU)                 │ (None, 40, 40, 32)     │             0 │
├─────────────────────────────────┼────────────────────────┼───────────────┤
│ max_pooling2d_57 (MaxPooling2D) │ (None, 20, 20, 32)     │             0 │
├─────────────────────────────────┼────────────────────────┼───────────────┤
│ dropout_114 (Dropout)           │ (None, 20, 20, 32)     │             0 │
├─────────────────────────────────┼────────────────────────┼───────────────┤
│ conv2d_59 (Conv2D)              │ (None, 20, 20, 64)     │        18,432 │
├─────────────────────────────────┼────────────────────────┼───────────────┤
│ batch_normalization_100         │ (None, 20, 20, 64)     │           256 │
│ (BatchNormalization)            │                        │               │
├─────────────────────────────────┼────────────────────────┼───────────────┤
│ re_lu_100 (ReLU)                │ (None, 20, 20, 64)     │             0 │
├─────────────────────────────────┼────────────────────────┼───────────────┤
│ max_pooling2d_58 (MaxPooling2D) │ (None, 10, 10, 64)     │             0 │
├─────────────────────────────────┼────────────────────────┼───────────────┤
│ dropout_115 (Dropout)           │ (None, 10, 10, 64)     │             0 │
├─────────────────────────────────┼────────────────────────┼───────────────┤
│ conv2d_60 (Conv2D)              │ (None, 10, 10, 128)    │        73,728 │
├─────────────────────────────────┼────────────────────────┼───────────────┤
│ batch_normalization_101         │ (None, 10, 10, 128)    │           512 │
│ (BatchNormalization)            │                        │               │
├─────────────────────────────────┼────────────────────────┼───────────────┤
│ re_lu_101 (ReLU)                │ (None, 10, 10, 128)    │             0 │
├─────────────────────────────────┼────────────────────────┼───────────────┤
│ max_pooling2d_59 (MaxPooling2D) │ (None, 5, 5, 128)      │             0 │
├─────────────────────────────────┼────────────────────────┼───────────────┤
│ dropout_116 (Dropout)           │ (None, 5, 5, 128)      │             0 │
├─────────────────────────────────┼────────────────────────┼───────────────┤
│ flatten_17 (Flatten)            │ (None, 3200)           │             0 │
├─────────────────────────────────┼────────────────────────┼───────────────┤
│ dense_76 (Dense)                │ (None, 256)            │       819,200 │
├─────────────────────────────────┼────────────────────────┼───────────────┤
│ batch_normalization_102         │ (None, 256)            │         1,024 │
│ (BatchNormalization)            │                        │               │
├─────────────────────────────────┼────────────────────────┼───────────────┤
│ re_lu_102 (ReLU)                │ (None, 256)            │             0 │
├─────────────────────────────────┼────────────────────────┼───────────────┤
│ dropout_117 (Dropout)           │ (None, 256)            │             0 │
├─────────────────────────────────┼────────────────────────┼───────────────┤
│ dense_77 (Dense)                │ (None, 128)            │        32,768 │
├─────────────────────────────────┼────────────────────────┼───────────────┤
│ batch_normalization_103         │ (None, 128)            │           512 │
│ (BatchNormalization)            │                        │               │
├─────────────────────────────────┼────────────────────────┼───────────────┤
│ re_lu_103 (ReLU)                │ (None, 128)            │             0 │
├─────────────────────────────────┼────────────────────────┼───────────────┤
│ dropout_118 (Dropout)           │ (None, 128)            │             0 │
├─────────────────────────────────┼────────────────────────┼───────────────┤
│ dense_78 (Dense)                │ (None, 64)             │         8,192 │
├─────────────────────────────────┼────────────────────────┼───────────────┤
│ batch_normalization_104         │ (None, 64)             │           256 │
│ (BatchNormalization)            │                        │               │
├─────────────────────────────────┼────────────────────────┼───────────────┤
│ re_lu_104 (ReLU)                │ (None, 64)             │             0 │
├─────────────────────────────────┼────────────────────────┼───────────────┤
│ dropout_119 (Dropout)           │ (None, 64)             │             0 │
├─────────────────────────────────┼────────────────────────┼───────────────┤
│ dense_79 (Dense)                │ (None, 2)              │           130 │
└─────────────────────────────────┴────────────────────────┴───────────────┘

Student Model:

┏━━━━━━━━━━━━━━━━━━━━━━━━━━━━━━━━━┳━━━━━━━━━━━━━━━━━━━━━━━━┳━━━━━━━━━━━━━━━┓
┃ Layer (type)                    ┃ Output Shape           ┃       Param # ┃
┡━━━━━━━━━━━━━━━━━━━━━━━━━━━━━━━━━╇━━━━━━━━━━━━━━━━━━━━━━━━╇━━━━━━━━━━━━━━━┩
│ input (InputLayer)              │ (None, 1600)           │             0 │
├─────────────────────────────────┼────────────────────────┼───────────────┤
│ dense_1 (Dense)                 │ (None, 256)            │       409,856 │
├─────────────────────────────────┼────────────────────────┼───────────────┤
│ dropout_3 (Dropout)             │ (None, 256)            │             0 │
├─────────────────────────────────┼────────────────────────┼───────────────┤
│ dense_2 (Dense)                 │ (None, 256)            │        65,792 │
├─────────────────────────────────┼────────────────────────┼───────────────┤
│ dropout_4 (Dropout)             │ (None, 256)            │             0 │
├─────────────────────────────────┼────────────────────────┼───────────────┤
│ dense_3 (Dense)                 │ (None, 256)            │        65,792 │
├─────────────────────────────────┼────────────────────────┼───────────────┤
│ dropout_5 (Dropout)             │ (None, 256)            │             0 │
├─────────────────────────────────┼────────────────────────┼───────────────┤
│ output (Dense)                  │ (None, 2)              │           514 │
└─────────────────────────────────┴────────────────────────┴───────────────┘


============================================================
COMPRESSING COMPLEX MODEL TO SIMPLE DENSE NETWORK
============================================================
Teacher: Sparse Conv Model (955,426 params)
Student: Simple Dense Model (541,954 params)
Compression Ratio: 1.8x
============================================================
…
